…
3/3 ━━━━━━━━━━━━━━━━━━━━ 7s 2s/step - accuracy: 0.9144 - loss: 0.1935 - val_accuracy: 0.9048 - val_loss: 0.2514
Epoch 9/10
3/3 ━━━━━━━━━━━━━━━━━━━━ 7s 2s/step - accuracy: 0.9106 - loss: 0.2299 - val_accuracy: 0.9048 - val_loss: 0.2682
Epoch 10/10
3/3 ━━━━━━━━━━━━━━━━━━━━ 8s 3s/step - accuracy: 0.9320 - loss: 0.1909 - val_accuracy: 0.9524 - val_loss: 0.1920
┏━━━━━━━━━━━━━━━━━━━━━━━━━━━━━━━━━━━━━━┳━━━━━━━━━━━━━━━━━━━━━━━━━━━━━┳━━━━━━━━━━━━━━━━━┓
┃ Layer (type)                         ┃ Output Shape                ┃         Param # ┃
┡━━━━━━━━━━━━━━━━━━━━━━━━━━━━━━━━━━━━━━╇━━━━━━━━━━━━━━━━━━━━━━━━━━━━━╇━━━━━━━━━━━━━━━━━┩
│ input_layer (InputLayer)             │ (None, 250, 250, 3)         │               0 │
├──────────────────────────────────────┼─────────────────────────────┼─────────────────┤
│ rescaling (Rescaling)                │ (None, 250, 250, 3)         │               0 │
├──────────────────────────────────────┼─────────────────────────────┼─────────────────┤
│ random_flip (RandomFlip)             │ (None, 250, 250, 3)         │               0 │
├──────────────────────────────────────┼─────────────────────────────┼─────────────────┤
│ conv2d (Conv2D)                      │ (None, 248, 248, 32)        │             896 │
├──────────────────────────────────────┼─────────────────────────────┼─────────────────┤
│ max_pooling2d (MaxPooling2D)         │ (None, 124, 124, 32)        │               0 │
├──────────────────────────────────────┼─────────────────────────────┼─────────────────┤
│ conv2d_1 (Conv2D)                    │ (None, 122, 122, 64)        │          18,496 │
├──────────────────────────────────────┼─────────────────────────────┼─────────────────┤
│ max_pooling2d_1 (MaxPooling2D)       │ (None, 61, 61, 64)          │               0 │
├──────────────────────────────────────┼─────────────────────────────┼─────────────────┤
│ conv2d_2 (Conv2D)                    │ (None, 59, 59, 128)         │          73,856 │
├──────────────────────────────────────┼─────────────────────────────┼─────────────────┤
│ max_pooling2d_2 (MaxPooling2D)       │ (None, 29, 29, 128)         │               0 │
├──────────────────────────────────────┼─────────────────────────────┼─────────────────┤
│ flatten (Flatten)                    │ (None, 107648)              │               0 │
├──────────────────────────────────────┼─────────────────────────────┼─────────────────┤
│ dense (Dense)                        │ (None, 128)                 │      13,779,072 │
├──────────────────────────────────────┼─────────────────────────────┼─────────────────┤
│ dropout (Dropout)                    │ (None, 128)                 │               0 │
├──────────────────────────────────────┼─────────────────────────────┼─────────────────┤
│ dense_1 (Dense)                      │ (None, 2)                   │             258 │
└──────────────────────────────────────┴─────────────────────────────┴─────────────────┘
 Total params: 41,617,736 (158.76 MB)
 Trainable params: 13,872,578 (52.92 MB)
 Non-trainable params: 0 (0.00 B)
 Optimizer params: 27,745,158 (105.84 MB)