…
377/377 [==============================] - 1050s 3s/step - loss: 0.2181 - accuracy: 0.9200 - val_loss: 0.2427 - val_accuracy: 0.9139
Epoch 10/10
377/377 [==============================] - 1052s 3s/step - loss: 0.2160 - accuracy: 0.9220 - val_loss: 0.2654 - val_accuracy: 0.9079
<Figure size 640x480 with 0 Axes>
<Figure size 640x480 with 0 Axes>
Model: "model_22"
_________________________________________________________________
 Layer (type)                Output Shape              Param #   
=================================================================
 input_23 (InputLayer)       [(None, 250, 250, 3)]     0         
                                                                 
 rescaling_22 (Rescaling)    (None, 250, 250, 3)       0         
                                                                 
 random_flip_22 (RandomFlip  (None, 250, 250, 3)       0         
 )                                                               
                                                                 
 conv2d_66 (Conv2D)          (None, 248, 248, 32)      896       
                                                                 
 max_pooling2d_66 (MaxPooli  (None, 124, 124, 32)      0         
 ng2D)                                                           
                                                                 
 conv2d_67 (Conv2D)          (None, 122, 122, 64)      18496     
                                                                 
 max_pooling2d_67 (MaxPooli  (None, 61, 61, 64)        0         
 ng2D)                                                           
                                                                 
 conv2d_68 (Conv2D)          (None, 59, 59, 128)       73856     
                                                                 
 max_pooling2d_68 (MaxPooli  (None, 29, 29, 128)       0         
 ng2D)                                                           
                                                                 
 flatten_22 (Flatten)        (None, 107648)            0         
                                                                 
 dense_44 (Dense)            (None, 128)               13779072  
                                                                 
 dropout_22 (Dropout)        (None, 128)               0         
                                                                 
 dense_45 (Dense)            (None, 2)                 258       
                                                                 
=================================================================
Total params: 13872578 (52.92 MB)
Trainable params: 13872578 (52.92 MB)
Non-trainable params: 0 (0.00 Byte)
_________________________________________________________________
The final training cost value is 0.21598894894123077
The final validation cost value i
…
